model.tflite (tflite, 5960 bytes, 5 tensors)

dense_1/MatMul_bias f4 [32]
000000 c0 67 10 40 ce 61 f9 bd df 0c 13 bf 00 00 00 00
       2.2563324 -0.12176858 -0.57441515 0.0
000010 a9 98 71 bc 00 00 00 00 65 7f 44 c0 8f 4b 59 bc
       -0.01474587 0.0 -3.0702755 -0.0132626435
000020 b1 47 18 40 00 00 00 00 a8 14 c8 3f ad 84 04 bf
       2.3793757 0.0 1.5631304 -0.5176495
000030 92 b7 04 c0 28 ac bc bf 00 00 00 00 00 00 00 00
       -2.0737042 -1.4740038 0.0 0.0
000040 00 00 00 00 03 86 d6 bf 41 a0 97 3f 28 b9 a1 be
       0.0 -1.6759647 1.1845781 -0.31586576
000050 00 00 00 00 f4 1a 1e 40 00 00 00 00 00 00 00 00
       0.0 2.470395 0.0 0.0
000060 d0 54 30 c0 8c 52 73 3e b2 1a 85 3f ec a7 3d bf
       -2.7551765 0.23761958 1.0398772 -0.74084353
000070 75 09 27 c0 0e 35 9c bf 27 28 c1 bb 2e 2e 13 bf
       -2.6099522 -1.2203691 -0.005894679 -0.5749234

dense_1/kernel/transpose f4 [32, 2]
000000 c1 4b d2 bd c6 52 91 3e d6 39 ca bd 86 ac cd 3d
       -0.10268355 0.28383464 -0.098743126 0.10042672
000010 4c ce a8 3b d4 46 21 bd c0 24 3c ba fd 7e 41 bd
       0.0051515456 -0.039374188 -0.0007177107 -0.047240246
000020 52 62 da bc a0 ea d2 3c d4 e3 94 bc 13 f6 43 bd
       -0.02665821 0.025746644 -0.018175043 -0.047842097
000030 05 af 06 bd 4a 9e db 3e 09 2d fc bc e6 e6 f6 3c
       -0.032881755 0.42894202 -0.030783193 0.030139398
000040 03 86 e1 bd f6 dc 50 3d f0 eb 34 bd 7a 6a 83 bc
       -0.11011889 0.050991975 -0.04417032 -0.016041983
000050 6e 7c ea bd 97 f6 f4 bb b0 e2 81 3b 6d 00 4f 3a
       -0.11449514 -0.007475685 0.003963791 0.0007896487
000060 4d 06 08 be 22 29 ee 3e ba b5 0b be 36 bd 1b 3f
       -0.13283654 0.46515757 -0.13643542 0.6083559
000070 c0 6a 89 ba 67 e9 a3 bc 20 04 19 bd 00 df 75 bb
       -0.0010484084 -0.020008756 -0.03735745 -0.0037516952
000080 ca 6e 0f bd d3 ae f3 bc a8 b8 0f 3e a9 2f b3 be
       -0.035017766 -0.029746449 0.14035285 -0.349973
000090 61 11 d7 be b2 c3 e9 3e 7f 36 7e 3b 7b 95 04 3f
       -0.42005447 0.45657116 0.0038789806 0.5179059
0000a0 60 b7 ac bc f7 2f 39 bd 1a db 1a 3b de eb 27 bf
       -0.021083534 -0.04521176 0.002362913 -0.6559428
0000b0 ed 4c f4 bc 63 d5 42 bd 3a 6d df bc ed a3 ec bc
       -0.029821837 -0.047566783 -0.027273763 -0.02888676
0000c0 7f fa 20 3d 72 21 07 3e f5 5f fd bd bb 1b d0 3d
       0.03930139 0.13196352 -0.12371818 0.10161539
0000d0 f3 52 a9 bd d1 1a 93 3b 18 16 02 3c 04 2f 60 bc
       -0.082677744 0.0044892807 0.007939838 -0.013683084
0000e0 62 3d 69 3b 5a 21 c3 3e e3 ee 56 3c c3 24 32 bd
       0.0035589566 0.38111383 0.0131184785 -0.04349209
0000f0 f0 ab 1c bd 3a 6b 16 3d 4a eb c3 bd 48 bc 08 3e
       -0.03824991 0.036723353 -0.09566362 0.13353074

dense_2/MatMul_bias f4 [32]
000000 60 cd 86 3f 6d 69 98 bd 1c 9c ba bc 2a 8e 85 3f
       1.0531425 -0.07441983 -0.022779517 1.043401
000010 17 4e 33 be 40 9b c0 3e 40 e4 67 3e 2e 81 8b 3f
       -0.17510258 0.37618446 0.22645664 1.0898798
000020 10 30 a9 bf 9f 71 a3 3f 23 87 0b 3a 69 a4 9b 3f
       -1.3217793 1.276905 0.0005322566 1.2159549
000030 ae f5 32 3f ac 66 70 bf a9 85 09 bf 9e bf 01 bd
       0.6990613 -0.93906665 -0.53719574 -0.03167688
000040 43 1b bf 3f b4 9e 86 3f f9 b9 fc bd e0 50 25 bf
       1.4930195 1.0517182 -0.12340159 -0.6457653
000050 d9 79 b6 bf b5 0c 63 be 66 8e 8d 3f 13 69 36 be
       -1.4255935 -0.22172816 1.1059082 -0.1781352
000060 f4 62 fe bd 75 21 05 3e 42 c4 b5 bf be cb 51 3f
       -0.124212176 0.13001044 -1.4200518 0.8195151
000070 67 ea 87 3e 4d 94 a4 3e 84 c6 11 3f da 47 c4 bd
       0.26546022 0.32144395 0.56943536 -0.09584017

dense_2/kernel/transpose f4 [32, 32]
000000 33 ac 24 be ee 34 76 bb ff 6a 23 be a4 44 57 be
       -0.16081314 -0.003756817 -0.15958785 -0.21022278
000010 b8 c6 e0 3d 7c 8e 34 be b9 4d fa be 34 6a 82 bd
       0.109754026 -0.17632478 -0.48887423 -0.06367913
000020 e8 8e dd 3e 28 45 2c bd c7 b5 f6 3e c2 ca 53 be
       0.4327309 -0.04205814 0.4818556 -0.20682815
000030 9d 5e 0f 3f 48 37 56 3e 6c 67 e7 3d ca ed 5a 3e
       0.56003743 0.20919526 0.11299023 0.21379772
000040 22 2d 93 bd 46 d2 76 be 88 6e e8 3e 1f 37 e0 be
       -0.07186343 -0.2410365 0.4539683 -0.43792054
000050 6c d0 ca 3d e4 92 12 3f 06 1b 16 be d0 2e d0 bd
       0.099030346 0.5725539 -0.14658746 -0.10165179
000060 9b dc db be e4 66 26 be 2e 2e 4f 3e f2 5c 19 be
       -0.42941746 -0.16250187 0.2023246 -0.14976862
000070 fe 81 90 bf 83 c6 09 be 3e 16 67 3e fb 71 f4 3d
       -1.128967 -0.13454632 0.22567078 0.119358025
000080 8d 45 71 be 20 f4 8b 3e 8a d3 73 be 44 79 a7 bd
       -0.23561688 0.2733469 -0.23811164 -0.081774265
000090 40 1a 9a be 9c d7 7f be 48 37 9b bd 48 d4 52 bd
       -0.30098152 -0.24984592 -0.075789034 -0.05147198
0000a0 c8 68 0d be 86 70 48 be a7 a8 a5 be d5 c8 f4 bd
       -0.13809502 -0.19574174 -0.32355234 -0.11952368
0000b0 d5 3d 92 be 8a cf 58 3e 80 35 11 bc 0e 88 79 be
       -0.285628 0.2117292 -0.008862853 -0.24368307
0000c0 92 b6 50 3e 3a 4f 40 be 00 97 35 be 31 54 59 be
       0.20382145 -0.18780223 -0.17733383 -0.21223523
0000d0 6f 97 98 3e bf ae 25 be 3d d9 94 be ea dd 7b 3e
       0.29803035 -0.16179942 -0.2907199 0.24596372
0000e0 6c 84 ce 3d 0f be 77 be 00 34 12 be d3 f3 f8 bd
       0.10083851 -0.24193595 -0.14277649 -0.12155881
0000f0 34 9f c3 3d 02 69 6b 3e 9b 44 8c 3e b6 e2 48 bb
       0.0955185 0.22989276 0.27396092 -0.0030652708
000100 96 46 98 be 21 0e 14 be dc d0 ee 3d fa ae 98 be
       -0.29741353 -0.14458515 0.116609305 -0.29820997
000110 9e 57 2a be 16 e5 51 3e 28 71 5e be 0f f1 7b be
       -0.16634986 0.20497546 -0.21722853 -0.24603675
000120 88 fd 62 be 62 c8 67 be 64 a1 32 bd b8 8d 5a bd
       -0.22167027 -0.22635034 -0.043610945 -0.05335781
000130 3b 04 91 3e fd 9a 28 3d 24 24 41 3e 40 c4 6d 3c
       0.2832354 0.041163433 0.18861443 0.014512122
000140 66 2a 47 be 03 45 7e be 49 11 08 be b7 57 7f be
       -0.19449767 -0.24831013 -0.13287844 -0.24935804
000150 b3 49 9b be 92 9c 81 be be 4a 75 3e 76 9c c0 bd
       -0.30329666 -0.25314766 0.23954293 -0.094048426
000160 b4 e4 4c be 8b fa 03 3e b4 0d 5a bd d4 63 b6 3d
       -0.20009118 0.12888543 -0.053235725 0.089057595
000170 30 bc 09 3e b0 9a 2e 3d de 75 61 3e 3f 47 8d 3e
       0.13450694 0.04262799 0.22017619 0.2759342
000180 3d 5c 39 bb bb 47 cd 3d e3 22 37 3b 06 11 43 be
       -0.0028283738 0.10023447 0.0027944378 -0.19049463
000190 83 44 fb bb b6 a4 1a be b0 a5 82 3f 07 97 3e be
       -0.0076680793 -0.15101895 1.0206814 -0.186123
0001a0 fd b2 4e be d0 cf 0f be 43 8f b3 3d df 76 b1 3d
       -0.20185466 -0.14044118 0.087675594 0.08665251
0001b0 92 c3 b6 3e 12 ac 03 3f ec 89 39 3e 70 7d dd 3d
       0.35696083 0.51434433 0.1811902 0.10814941
0001c0 40 37 7f 3c 88 0c 52 be 9d 03 5c be 11 f8 3b 3e
       0.0155771375 -0.20512593 -0.21485753 0.18356349
0001d0 a9 98 0f be aa 32 2b 3e 00 f6 3e be f7 da 80 3e
       -0.14023079 0.16718546 -0.18648529 0.25167057
0001e0 e4 77 c7 ba 2e 62 7d 3e 83 78 35 be 52 b4 0b 3e
       -0.0015218225 0.24744484 -0.17721753 0.13643005
0001f0 31 9b c8 3e a7 4b 8b bd 55 74 a2 bd 4b 9c f8 bc
       0.39180902 -0.06801539 -0.07932345 -0.030347964
000200 a7 1f 85 be 18 24 81 be 81 ac f6 3d b2 41 42 3e
       -0.2600071 -0.2522285 0.12044621 0.18970373
000210 59 39 8c 3e 44 0e 58 be bb bb 96 3c b9 c9 96 3e
       0.27387503 -0.21099192 0.018400064 0.29450777
000220 ee d8 1b be 82 75 77 3e 9b ac 7d be 20 16 5d be
       -0.15219471 0.2416592 -0.24772875 -0.21590471
000230 bf 3c 4b 3e dd b7 b7 bd 0c 5d a2 bd 5a 1d 7d 3e
       0.19847392 -0.08970616 -0.079279035 0.24718228
000240 8b 05 00 be 6c 36 a1 bd 5b 29 15 be c5 a2 3f be
       -0.12502114 -0.07871708 -0.14566557 -0.18714435
000250 a4 6a dc 3d 2e 28 e6 3d 96 9d 7d be 1f ab 1a be
       0.107625276 0.112381324 -0.24767146 -0.1510434
000260 53 87 f8 bd c9 95 b8 3d e5 30 b0 be d5 a1 88 be
       -0.12135186 0.09012944 -0.34412304 -0.26685968
000270 30 11 06 3e e0 0b 64 be 82 5f 74 3e 54 86 3d 3e
       0.13092494 -0.22270155 0.23864558 0.18508273
000280 c4 54 91 be 32 6b 34 3e fc d3 99 be e0 6c 33 bc
       -0.28384984 0.17619017 -0.30044544 -0.010951251
000290 8d 57 5d be c0 9c 5a 3c e0 ef 19 3f 7f 24 8b 3e
       -0.21615429 0.013343036 0.60131645 0.27176282
0002a0 a9 83 f8 bd 40 ab 5b 3d f5 24 91 3c e1 78 76 be
       -0.12134487 0.053630114 0.017717818 -0.24069549
0002b0 28 67 e9 3e d5 a9 8f 3e 2e bb 49 3e 09 f6 90 3e
       0.45586514 0.2805926 0.1970031 0.2831271
0002c0 da 93 8e bd f7 68 44 bf 2a 81 c4 be 75 be bc 3e
       -0.06961794 -0.76722664 -0.38379794 0.36864057
0002d0 08 bb 0f be d0 c5 ac 3e 78 49 c6 bd c0 79 c0 3d
       -0.1403619 0.3374467 -0.09681982 0.09398222
0002e0 da fe 66 3e e0 c1 b3 3e 3d 0f 3c 3e 60 9d 21 3e
       0.22558156 0.35108852 0.18365188 0.1578269
0002f0 de 7f 9c 3e f4 d5 81 bd 40 20 23 3d 89 db f4 bd
       0.30566305 -0.063396364 0.039825678 -0.119559355
000300 7d 53 af 3e e6 c5 8d be 1a fb f4 bc 64 a4 7f bd
       0.34243384 -0.27690047 -0.02990489 -0.062412634
000310 0b 0f 83 3e 20 f9 b1 bd d7 1e d0 3d 79 2f 86 be
       0.25597414 -0.08690095 0.10162132 -0.26208094
000320 df 6b 2a 3f 00 1f 20 3d f9 37 d3 3e 35 12 f2 bd
       0.6657085 0.039092064 0.4125364 -0.11819879
000330 bd b0 78 3f 12 e1 a9 3e 1f a7 96 be 00 1a 62 3a
       0.9714468 0.33179528 -0.29424378 0.000862509
000340 3a 1c 5d 3e f0 c9 c7 c0 34 2c 7f 3d 07 ec 09 bf
       0.21592799 -6.2434006 0.062298015 -0.53875774
000350 a0 56 bd 3d af 5f eb 3d 59 62 9a be 60 07 2b bc
       0.09245038 0.114928596 -0.30153158 -0.01043877
000360 a5 39 0e 3e 0d 6b 59 3e 66 09 ee 3e ee b1 35 3e
       0.13889177 0.21232243 0.46491545 0.17743656
000370 9f a4 02 bf 9f 75 93 bd bc 5e 69 be 54 ef 53 3c
       -0.5103244 -0.07200169 -0.22790045 0.012935478
000380 df 23 a4 3e 79 80 aa be 1e b1 19 3d c2 a6 5d be
       0.32058617 -0.33301142 0.037522428 -0.21645644
000390 b2 cb 4c 3e 74 76 23 3e 47 3f b0 bf 88 01 3a 3d
       0.19999579 0.15963155 -1.3769311 0.045411617
0003a0 b0 30 35 3e b8 9e 0c 3e 91 c3 06 3f c3 bd 6f 3e
       0.17694354 0.13732421 0.5264216 0.23412232
0003b0 5f ed 0c 3e da a4 4f bf e4 7a 4d be a8 28 0f be
       0.13762425 -0.8111092 -0.2006641 -0.13980353
0003c0 d2 54 87 be eb 28 30 bd 6e f5 cc 3f 4f 70 a4 3e
       -0.264319 -0.043007772 1.6012399 0.32116935
0003d0 e0 76 83 3d a6 7d c2 be 3f 52 0c be 80 6b 1f bc
       0.06419158 -0.37986487 -0.1370325 -0.00973022
0003e0 82 30 43 3e 84 84 51 3e 39 48 19 3f c9 e5 2a 3e
       0.19061473 0.20460707 0.5987583 0.16689219
0003f0 e8 e9 36 bf 15 c6 e3 3d a3 b1 99 3e 2f 1e 9b bd
       -0.7145066 0.111217655 0.3001834 -0.075741164

dense_3/kernel/transpose f4 [1, 32]
000000 00 36 b2 be da 8b 7a be 6c 71 72 bd ae b2 ab 3e
       -0.34806824 -0.24467412 -0.0591902 0.3353476
000010 39 f5 68 be 46 3f 8f 3e 24 f0 d8 be f2 b6 50 3e
       -0.22749795 0.2797796 -0.42370713 0.20382288
000020 f5 e9 a2 be 98 ac 58 3f 57 84 c2 bd a9 84 8d 3e
       -0.3181912 0.8463836 -0.09497898 0.27640274
000030 95 e1 c1 be bf f9 df bd d1 d6 1c 3e 71 96 27 bd
       -0.37867418 -0.10936307 0.15316321 -0.040914956
000040 0e 95 03 3f 62 ca cc 3e 99 a4 9e be 68 0e 0b 3e
       0.51399314 0.39998156 -0.30984953 0.13579714
000050 ee 56 83 bf 5e 66 c6 3b 14 d7 72 bf c8 f1 0b bd
       -1.0260904 0.0060546836 -0.94859433 -0.034166127
000060 3a 22 9e bd 74 7a 5b 3f 53 21 5d be fd 99 51 3e
       -0.07721372 0.85733724 -0.21594743 0.20468898
000070 ab 0b c5 be bc 53 09 3f e1 3c 54 be 97 80 31 3d
       -0.38485464 0.53643394 -0.20726348 0.043335523
